Snake AI Q-DEEP/model/model.pth (torch, 17280 bytes, 4 tensors)

linear1.weight f4 [256, 11]
0.13851811 -0.9189474 -0.17690136 -0.4910167 0.51413697 -0.43515995 0.23332486 0.0048734616
-0.5154025 0.5079624 -0.45758516 -0.02957666 -0.28407106 0.19026697 -0.39163744 -0.15617813
-0.27027628 0.1735666 -0.31230444 0.10276944 0.39042145 -0.22966494 -0.06034359 -0.0654704
0.1847832 -0.030401936 0.025644628 0.048588008 -0.011063243 0.026922997 -0.15213469 0.05475198
-0.007938384 -0.40237796 0.23939835 0.103543006 -0.16551183 -0.304193 -0.02967482 -0.21068032
-0.11434654 -0.028718265 -0.16614375 0.0644096 -0.25559354 -0.20710218 0.8266075 0.3625438
-0.2842131 0.2349786 0.043037187 0.09278523 -0.28952965 0.14004084 -0.41229767 0.06714118
0.5710174 -0.6200583 -0.29953447 0.22507925 -0.48440102 0.294247 -0.2775647 -0.1422678
0.4348826 -0.030288579 -0.19058692 -0.75307053 0.99420685 -0.09980198 0.009370476 -0.16867903
0.113391995 -0.08279107 0.041648258 -0.5785075 -0.11396085 0.2561643 -0.6660258 -0.060803033
-0.33906633 0.27376896 0.25695083 -0.31178966 0.21386968 -0.46473655 -0.1499844 -0.175047
0.14033553 -0.20094186 -0.0342556 -0.1874299 0.4327986 0.17724618 -0.5868227 0.13921598
-0.51066905 -0.5338987 0.5596073 0.33535865 0.08578618 0.120390914 0.27516118 -0.1633397
-0.17426285 -0.5457821 -0.2056489 -0.89513123 0.24166827 0.70623577 -0.18653469 -0.15209472
-0.05621249 0.15401325 -0.29049647 0.41440898 -0.2589979 -0.5525242 0.13995323 -0.61895704
-0.32131523 0.0037328058 -0.058441814 0.017084988 0.079056665 -0.5902059 0.5275672 0.07905575
-0.7100685 -0.08030924 0.52506304 -0.52169496 0.04767946 0.022491453 0.4934506 -0.05937516
-0.15424775 -0.1817248 -0.38158268 0.0061040134 -0.18528213 0.084309876 0.240597 -0.28737387
0.60288274 -0.61228144 -0.13743764 0.06491826 0.16897506 0.14252941 -0.4878228 -0.25740558
0.085451744 -0.028314177 0.22819807 0.7565411 0.15873744 -0.25148678 0.32956147 0.29721016
-0.24930012 0.4321895 -0.29555774 -0.17459092 0.40495554 -0.26692533 -0.12586501 -0.2930354
-0.35240367 -0.07667631 -0.46319854 0.33018693 -0.580569 -0.43339685 -0.32857963 0.33652565
0.42614728 0.3914769 -0.13281849 -0.044025347 0.08683744 -0.21206607 -0.16443798 0.075066485
-0.20560691 -0.014962265 0.23754649 -0.15714215 -0.852483 0.015619083 0.42966506 -0.5559098
-0.09986413 0.21331951 -0.5424124 0.5049614 -0.05082285 -0.27809337 0.22499695 -0.070568696
0.51306653 -0.67743164 -0.06897256 -0.41858622 0.0676663 0.4202872 0.1738752 0.33112827
-0.06484699 0.36915895 0.30287462 0.47761953 -0.18596914 -0.20754772 -0.26287448 -0.20217177
-0.1544156 -0.15466991 0.046378702 -0.0018277529 -0.1343187 -0.024520312 -0.5280522 0.7571977
0.24688686 -0.48068383 -0.07789627 -0.57873774 -0.15538573 0.5883198 0.2292022 0.15183744
0.09177059 0.114225835 -0.020515889 -0.031207383 -0.14918669 -0.08580391 -0.17316952 -0.1838174
-0.30109215 -0.11031751 0.030076109 0.14788203 -0.40581217 -0.26738557 -0.13667718 0.15845217
-0.19239208 -0.014232744 -0.07198839 -0.44609112 0.037005752 0.062880695 0.9445995 -0.06245932
00000000: b1d7 0d3e 2340 6bbf a125 35be 8a66 fbbe
00000010: 7b9e 033f 49cd debe b6ec 6e3e 8fb1 9f3b
00000020: 6bf1 03bf d309 023f 9a48 eabe c04a f2bc
00000030: c371 91be 58d5 423e b484 c8be 29ed 1fbe
00000040: a761 8abe 71bb 313e 5ee6 9fbe c978 d23d
00000050: 52e5 c73e 492d 6bbe d72a 77bd 5815 86bd
00000060: cf37 3d3e 7b0d f9bc af14 d23c 3804 473d
00000070: 9b42 35bc 9e8d dc3c 32c9 1bbe 9d43 603d
00000080: ff0f 02bc 7c04 cebe d724 753e 5b0e d43d
00000090: ef7b 29be 2fbf 9bbe 9c18 f3bc 95bc 57be
000000a0: 852e eabd 9142 ebbc 9621 2abe 2ee9 833d
000000b0: 28dd 82be 9812 54be 8d9c 533f 579f b93e
000000c0: 6184 91be 3b9e 703e c347 303d 2f06 be3d
000000d0: 3b3d 94be de66 0f3e ae18 d3be 5181 893d
000000e0: 322e 123f 24bc 1ebf 955c 99be 2d7b 663e
000000f0: 6903 f8be 8ba7 963e f61c 8ebe a6ae 11be
00000100: efa8 de3e c11f f8bc 3829 43be 3bc9 40bf
00000110: 5784 7e3f fb64 ccbd a086 193c 32ba 2cbe
00000120: 103a e83d 5d8e a9bd 5d97 2a3d 1119 14bf
00000130: 4e64 e9bd f827 833e ab80 2abf 9a0c 79bd
00000140: 1a9a adbe 722b 8c3e 0f8f 833e e5a2 9fbe
00000150: a700 5b3e f3f1 edbe 8395 19be 853f 33be
00000160: 1eb4 0f3e b4c3 4dbe 9a4f 0cbd a0ed 3fbe
00000170: c797 dd3e 0680 353e 033a 16bf a28e 0e3e
00000180: 35bb 02bf 96ad 08bf 6d42 0f3f 21b4 ab3e
00000190: aab0 af3d 838f f63d ede1 8c3e 8642 27be
000001a0: f671 32be 60b8 0bbf a095 52be 5227 65bf
000001b0: e377 773e decb 343f f302 3fbe b8be 1bbe
000001c0: 113f 66bd a6b5 1d3e f4bb 94be 6a2d d43e
000001d0: 5f9b 84be 3a72 0dbf e64f 0f3e f873 1ebf
000001e0: 6e83 a4be 17a2 743b af60 6fbd d1f5 8b3c
000001f0: 76e8 a13d bc17 17bf a50e 073f fbe7 a13d
00000200: 0dc7 35bf 2c79 a4bd 886a 063f cd8d 05bf
00000210: 8a4b 433d ff3f b83c 8fa5 fc3e 5e33 73bd
00000220: 1ff3 1dbe 1116 3abe ce5e c3be 2d04 c83b
00000230: 99ba 3dbe a8aa ac3d 0f5f 763e ab22 93be
00000240: 8656 1a3f 7abe 1cbf 74bc 0cbe ddf3 843d
00000250: cc07 2d3e 3bf3 113e e9c3 f9be aaca 83be
00000260: 5301 af3d 22f3 e7bc c1ac 693e adac 413f
00000270: 118c 223e e0c2 80be 48bc a83e ee2b 983e
00000280: 8848 7fbe f147 dd3e 5853 97be f6c7 32be
00000290: 5556 cf3e 70aa 88be c2e2 00be bc08 96be
000002a0: 416e b4be 7808 9dbd 5c28 edbe 430e a93e
000002b0: 2ca0 14bf 31e6 ddbe 973b a8be 174d ac3e
000002c0: fa2f da3e a96f c83e 9201 08be ec53 34bd
000002d0: d4d7 b13d d927 59be 6e62 28be 75bc 993d
000002e0: 9e8a 52be 4a24 75bc 633f 733e dfe9 20be
000002f0: 533c 5abf 2fe7 7f3c 0ffd db3e 1b50 0ebf
00000300: 9185 ccbd 6e70 5a3e 8adb 0abf 2645 013f
00000310: 9f2b 50bd 4162 8ebe 9a65 663e 5286 90bd
00000320: 5458 033f 296c 2dbf 7c41 8dbd ef50 d6be
00000330: a194 8a3d e22f d73e 570c 323e a589 a93e
00000340: 80ce 84bd 6702 bd3e 6212 9b3e 8c8a f43e
00000350: b26e 3ebe 6487 54be 7c97 86be 1e06 4fbe
00000360: 1f1f 1ebe ca61 1ebe 98f7 3d3d 3691 efba
00000370: d78a 09be d2de c8bc 6e2e 07bf b5d7 413f
00000380: e9cf 7c3e 311c f6be 1488 9fbd 2828 14bf
00000390: 701d 1fbe 209c 163f fbb3 6a3e 467b 1b3e
000003a0: 38f2 bb3d 3cef e93d f010 a8bc a0a6 ffbc
000003b0: 65c4 18be f6b9 afbd 5a53 31be a13a 3cbe
000003c0: c028 9abe 26ee e1bd 2c62 f63c 636e 173e
000003d0: 9dc6 cfbe c3e6 88be 1af5 0bbe 4941 223e
000003e0: 6e02 45be 7530 69bc a66e 93bd 0e66 e4be
000003f0: 5893 173d 98c7 803d 46d1 713f 58d5 7fbd

linear1.bias f4 [256]
-0.031164905 -0.2413288 -0.3277767 -0.36217883 0.1706587 -0.33190325 0.47596556 -0.09393742
0.021131026 -0.17000335 0.10573212 -0.00931406 -0.3024775 0.3490908 -0.24882153 -0.037106153
-0.31554425 0.08823817 -0.12790444 -0.529954 -0.23314464 -0.22871006 -0.40765107 -0.14141457
-0.0637842 -0.64378834 1.21527 0.020551063 0.16252683 0.14034036 -0.24483971 -0.062424064
-0.25693637 -0.2024042 0.16047738 -0.23475485 -0.10479854 -0.116432 -0.1922019 0.10217194
-0.30237365 -0.21280336 -0.37545434 -0.5658561 -0.15094517 -0.2155988 -0.11789645 -0.0113804815
-0.18353033 0.103897914 -0.30477324 -0.3327584 -0.56008196 -0.20567802 0.108105235 -0.58540106
-0.1643999 -0.2969931 -0.13877155 0.410546 0.1091755 -0.22431234 -0.1521479 -0.055866305
-0.35785228 -0.13216461 -0.20420486 -0.23416421 -0.12062978 -0.0043738773 -0.2571923 -0.5246436
-0.4963948 -0.23362367 -0.14108063 -0.138531 -0.33960924 -0.31744006 -0.2690257 0.51045936
0.6321288 -0.14498347 -0.5655187 -0.027516361 -0.6833484 -0.22462781 -0.23217404 0.11618446
-0.19342583 -0.0959473 -0.16577083 0.101412445 0.16355754 -0.22972172 -0.5682754 -0.25944632
-0.47131395 -0.113607034 -0.10431632 0.307306 -0.24482264 -0.3294522 -0.05780605 0.17605132
0.30705035 -0.10163682 -0.19315653 -0.2827419 0.0036135605 -0.27199218 -0.40452617 -0.20459113
-0.1785763 -0.39824888 -0.111521125 -0.38610893 1.0778291 -0.33631262 0.006051102 0.020595828
0.01744648 -0.25372615 0.38352886 -0.41066027 0.016642341 -0.19244178 -0.41915497 -0.05404941
-0.24259087 -0.03438905 -0.17240845 -0.08525477 0.056291487 -0.27017212 -0.17824022 -0.242329
0.4328127 -0.33980852 -0.29058307 0.03363646 -0.1493507 -0.11397737 -0.19234468 -0.3209035
-0.2488917 -0.18509486 -0.3264795 -0.3080378 0.053878535 -0.19502848 0.016908046 -0.38172436
-0.103938654 -0.18143651 -0.041633595 -0.1965547 -0.17328164 0.16077608 -0.18907428 -0.0635237
-0.24606599 1.3214906 0.40825027 0.26430523 -0.37805024 -0.13920602 -0.30561203 -0.23867601
-0.14943032 -0.31708223 -0.09939708 0.29329088 -0.094579585 -0.4096305 0.39090437 -0.17018132
-0.23735362 0.12400473 -0.45112 1.198269 0.47630775 -0.0027651384 -0.06429731 0.13574116
0.0018519522 -0.031818155 -0.15583682 -0.07865136 -0.3435723 0.032532815 -0.38366303 0.027908182
-0.093796425 0.23693494 -0.4424062 -0.13470744 -0.08341636 -0.43240336 0.019085538 -0.52263397
-0.17418885 -0.05832176 -0.552167 -0.2557611 -0.05706801 -0.028627884 0.15770386 -0.42780828
-0.57656926 -0.5051318 -0.050730836 -0.20673394 0.00080116256 -0.0629213 -0.1032139 0.06670224
-0.085900135 -0.04868169 0.010765316 -0.2088862 -0.258214 0.61879754 -0.17314288 -0.13325816
0.05835759 -0.5209594 -0.2694133 -0.11306383 -0.33546367 -0.3077692 -0.2937085 -0.47838596
-0.0125096105 0.32723758 0.6375764 -0.19868144 -0.14500274 -0.042139586 -0.56362855 -0.26562873
-0.20188616 -0.11082459 -0.29662448 0.20231445 -0.38849717 -0.42976925 -0.24303758 0.09580491
0.10628251 0.75823784 -0.36525637 0.105988815 0.49805483 -0.20735267 -0.21246825 -0.064009406
00000000: 8b4d ffbc e61e 77be 59d2 a7be 816f b9be
00000010: 27c1 2e3e 39ef a9be c2b1 f33e 4362 c0bd
00000020: f91a ad3c 5c15 2ebe 158a d83d 009a 18bc
00000030: 55de 9abe 08bc b23e 12cb 7ebe 9ffc 17bd
00000040: 048f a1be 37b6 b43d 62f9 02be 11ab 07bf
00000050: 78bd 6ebe f832 6abe a4b7 d0be fbce 10be
00000060: 4aa1 82bd 50cf 24bf f88d 9b3f b45a a83c
00000070: 6f6d 263e 62b5 0f3e 43b7 7abe 60b0 7fbd
00000080: 2a8d 83be 0c43 4fbe 2f54 243e 9363 70be
00000090: 9ea0 d6bd e773 eebd 93d0 44be 863f d13d
000000a0: b8d0 9abe 20e9 59be 8d3b c0be f2db 10bf
000000b0: 5f91 1abe efc5 5cbe b273 f1bd 3375 3abc
000000c0: 60ef 3bbe 6ec8 d43d 3d0b 9cbe 4f5f aabe
000000d0: 8861 0fbf 429d 52be 4766 dd3d d8dc 15bf
000000e0: 7358 28be 7b0f 98be 211a 0ebe 1633 d23e
000000f0: 6897 df3d 22b2 65be a9cc 1bbe 11d4 64bd
00000100: 6a38 b7be 2956 07be 141b 51be bec8 6fbe
00000110: bf0c f7bd be52 8fbb b6ae 83be 0b4f 06bf
00000120: 7627 febe 0b3b 6fbe 7177 10be 12db 0dbe
00000130: 43e1 adbe 8187 a2be bdbd 89be 77ad 023f
00000140: 31d3 213f 8c76 14be d5c5 10bf fe69 e1bc
00000150: ecef 2ebf d504 66be 08bf 6dbe 1ef2 ed3d
00000160: 6c11 46be 0580 c4bd d4bf 29be 54b1 cf3d
00000170: a17b 273e 2c3c 6bbe 7f7a 11bf 26d6 84be
00000180: 1050 f1be ceaa e8bd cba3 d5bd 3657 9d3e
00000190: c9b2 7abe f5ad a8be 09c6 6cbd cc46 343e
000001a0: b435 9d3e f726 d0bd d3ca 45be 8cc3 90be
000001b0: 7cd1 6c3b 8f42 8bbe 0e1e cfbe 5680 51be
000001c0: b5dc 36be 47e7 cbbe 3065 e4bd 12b0 c5be
000001d0: 4ef6 893f 2b31 acbe 5348 c63b 95b8 a83c
000001e0: eceb 8e3c 65e8 81be e55d c43e 1042 d2be
000001f0: 8555 883c 750f 45be 7b9b d6be ea62 5dbd
00000200: be69 78be 88db 0cbd d78b 30be 0e9a aebd
00000210: e791 663d 0054 8abe 9b84 36be 1825 78be
00000220: a099 dd3e 62fb adbe 4ec7 94be 62c6 093d
00000230: 64ef 18be f86c e9bd 01f6 44be 774d a4be
00000240: 77dd 7ebe 8289 3dbe 5228 a7be 21b7 9dbe
00000250: bdaf 5c3d 8cb5 47be be82 8a3c 6071 c3be
00000260: cadd d4bd 7eca 39be fd87 2abd a345 49be
00000270: be70 31be 7ca2 243e b09c 41be b718 82bd
00000280: b9f8 7bbe 9b26 a93f 2e06 d13e 0453 873e
00000290: cd8f c1be 068c 0ebe 2e79 9cbe 7c67 74be
000002a0: 4304 19be 9a58 a2be b290 cbbd 392a 963e
000002b0: f1b2 c1bd 17bb d1be 9e24 c83e 0344 2ebe
000002c0: d40c 73be 31f6 fd3d 33f9 e6be e160 993f
000002d0: 9cde f33e 5337 35bb 4fae 83bd bbff 0a3e
000002e0: 34bd f23a c153 02bd b093 1fbe f713 a1bd
000002f0: b5e8 afbe 2141 053d 7b6f c4be b39f e43c
00000300: 5718 c0bd 139f 723e 1183 e2be bff0 09be
00000310: 32d6 aabd f963 ddbe 4659 9c3c 57cb 05bf
00000320: 905e 32be cce2 6ebd d15a 0dbf 1ef3 82be
00000330: 25c0 69bd 0685 eabc 1f7d 213e b009 dbbe
00000340: 0b9a 13bf 5150 01bf 23cb 4fbd 10b2 53be
00000350: 1c05 523a e2dc 80bd cf61 d3bd 2f9b 883d
00000360: 69ec afbd 7466 47bd 0261 303c 44e6 55be
00000370: a034 84be 8469 1e3f 5e4c 31be d474 08be
00000380: 5e08 6f3d 985d 05bf 8af0 89be 028e e7bd
00000390: e5c1 abbe ed93 9dbe f660 96be 01ef f4be
000003a0: 1cf5 4cbc af8b a73e 3538 233f 2673 4bbe
000003b0: 997b 14be 8f9a 2cbd f649 10bf 7d00 88be
000003c0: 3fbb 4ebe 01f8 e2bd 2adf 97be 852b 4f3e
000003d0: 1ae9 c6be b70a dcbe d8de 78be 5d35 c43d
000003e0: a5aa d93d e01b 423f e202 bbbe aa10 d93d
000003f0: 0b01 ff3e 4254 54be 4791 59be 5d17 83bd

linear2.weight f4 [3, 256]
-0.6428607 -0.032398332 0.008225082 0.072260864 0.31130475 -0.07665775 0.3773318 -0.11526264
-0.33642986 -0.53939533 -0.19264524 0.21888761 -0.004824466 0.1897031 -0.22441357 0.1220952
-0.13244627 -0.58422214 -0.124762736 -0.06608173 -0.647592 -0.016597144 -0.06042187 -0.059612475
0.15657285 -0.04214734 0.26290175 -0.24006602 -0.02871087 0.35830632 -0.02547523 0.015720235
-0.0031888587 0.0062743034 0.442974 -0.7244799 -0.07180248 -0.25855443 -0.16213824 0.07716843
-0.0020385191 -0.08233027 -0.07112281 0.043372437 -0.18859848 -0.41642597 0.055861272 -0.5957669
-0.064375095 0.33683878 0.027486598 -0.0152035775 -0.18588862 -0.39495116 0.21114214 0.03731008
0.01312667 0.040091187 -0.1655682 0.36937273 0.45200425 -0.2222367 -0.008782363 -0.0012155472
-0.0429673 0.00053668243 -0.06527098 -0.09800644 -0.0101604145 0.0040291045 -0.022294918 0.118303984
-0.017404659 0.028252134 -0.24069588 -0.038407307 -0.015143283 -0.000745115 -0.28555784 0.34342995
0.21151656 -0.25059044 -0.31306246 0.22444867 -0.046458118 -0.24330701 -0.3021263 0.362677
-0.54159564 -0.47490162 -0.17600892 0.09421795 0.5877502 -0.22066782 0.006210727 -0.013691957
-0.43662003 -0.37527758 0.20660377 0.5038936 0.043479502 -0.21542357 -0.0071180644 -0.4969632
0.6752143 -0.02129984 -0.016755793 -0.026133047 -0.3481592 -0.30836907 -0.1999244 -0.019922731
-0.16239281 -0.023978712 0.031101538 -0.03679436 0.32754788 0.003084703 -0.44636595 0.07770963
0.009453679 0.03113855 0.5173493 -0.003747679 0.01515498 0.014132171 -0.0093934275 -0.2626755
-0.07510754 0.33907846 -0.08604077 0.15286486 -0.041056138 -0.2623013 0.0103166625 -0.03804311
0.48142403 0.06898882 -0.044270612 -0.0114723705 -0.39051807 -0.011167616 -0.097655416 -0.66218525
-0.06785495 -0.031420864 -0.11981618 -0.085016854 0.57583964 -0.04876626 0.3497634 -0.013280769
0.40084493 -0.24398622 -0.034048542 -0.21559602 -0.27431858 0.0010659881 -0.006567143 0.018270243
-0.036411747 0.392981 0.241425 0.38030195 -0.05306958 -0.08310501 -0.21760939 -0.005330625
-0.44588116 -0.01900664 -0.009297884 0.13352787 0.1278588 -0.004149332 0.16359699 0.0074797384
-0.038660906 0.1154003 -0.018472053 0.47808978 0.2712545 0.26329622 -0.13293803 0.48923293
0.15066554 0.03818282 -0.31197703 -0.11912963 -0.011815638 0.33549923 -0.09112908 -0.25961047
-0.2041108 0.5269206 0.055184703 -0.034777112 0.010074309 0.0041015306 -0.34227014 0.012994994
0.036466457 0.051405873 -0.048384096 -0.0014362817 0.037838638 0.13395399 0.109218426 -0.014573251
-0.00864854 0.020865684 0.2878633 -0.09050758 0.2320223 -0.049190942 -0.1739983 0.2232315
-0.00135721 -0.43872628 0.08072882 0.025347546 0.027925448 0.33780274 -0.6487332 -0.117168084
-0.47787866 0.50025004 -0.28484368 -0.105960354 -0.13920349 -0.40846327 -0.15553224 0.027528433
0.58121 0.13426997 0.30322498 -0.11033746 0.061502017 0.09616775 -0.08946629 -0.003987286
0.5012937 -0.13225043 -0.020402176 0.046117805 -0.07825435 0.22739711 0.16825989 0.3832817
0.29665765 0.31854758 0.030926852 -0.3024417 0.56321114 0.45126313 0.031181242 0.02378712
00000000: 8592 24bf 1db4 04bd 7fc2 063c 81fd 933d
00000010: 5663 9f3e bdfe 9cbd a231 c13e d20e ecbd
00000020: 8940 acbe d015 0abf cb44 45be 1324 603e
00000030: 8e16 9ebb 8841 423e accc 65be 0c0d fa3d
00000040: ff9f 07be 958f 15bf 9b83 ffbd dc55 87bd
00000050: 97c8 25bf bcf6 87bc ec7c 77bd 362c 74bd
00000060: a254 203e b0a2 2cbd 0f9b 863e ded3 75be
00000070: 0f33 ebbc ed73 b73e 6eb1 d0bc b9c7 803c
00000080: 2cfc 50bb ac98 cd3b 7dcd e23e 8477 39bf
00000090: 2e0d 93bd 3f61 84be 9107 26be 7b0a 9e3d
000000a0: ad98 05bb c69c a8bd d6a8 91bd 4ca7 313d
000000b0: f61f 41be c935 d5be cace 643d 2e84 18bf
000000c0: 17d7 83bd 2276 ac3e 932b e13c 6d18 79bc
000000d0: 9659 3ebe 0a37 cabe a535 583e 74d2 183d
000000e0: 3f11 573c a836 243d b68a 29be 6c1e bd3e
000000f0: 1a6d e73e 0492 63be e6e3 0fbc ff52 9fba
00000100: 7bfe 2fbd 26b0 0c3a cbac 85bd 9ab7 c8bd
00000110: de77 26bc 9406 843b d5a3 b6bc 5c49 f23d
00000120: 3794 8ebc 0571 e73c fb78 76be fb50 1dbd
00000130: 881b 78bc d253 43ba a334 92be 0dd6 af3e
00000140: cc97 583e 644d 80be b949 a0be dfd5 653e
00000150: de4a 3ebd 7925 79be 4cb0 9abe cdb0 b93e
00000160: 03a6 0abf 4e26 f3be af3b 34be 57f5 c03d
00000170: cc76 163f bff6 61be 5b83 cb3b 3b54 60bc
00000180: a98c dfbe 6224 c0be f08f 533e 2cff 003f
00000190: 9017 323d ff97 5cbe a73e e9bb f671 febe
000001a0: d8da 2c3f 017d aebc 7243 89bc f914 d6bc
000001b0: ec41 b2be 8de2 9dbe fbb8 4cbe ff34 a3bc
000001c0: 4d4a 26be 016f c4bc a7c8 fe3c afb5 16bd
000001d0: 5bb4 a73e bb28 4a3b 148a e4be 3a26 9f3d
000001e0: 9be3 1a3c 4616 ff3c 0171 043f 9f9b 75bb
000001f0: 984c 783c 9f8a 673c e4e6 19bc 677d 86be
00000200: fbd1 99bd b19b ad3e 2536 b0bd 9b88 1c3e
00000210: 7b2a 28bd 5b4c 86be 3807 293c 18d3 1bbd
00000220: 367d f63e 034a 8d3d 1a55 35bd 9cf6 3bbc
00000230: fcf1 c7be 60f8 36bc 90ff c7bd f984 29bf
00000240: 89f7 8abd 2ab3 00bd 2f62 f5bd 511d aebd
00000250: 3a6a 133f 21bf 47bd 3014 b33e 9597 59bc
00000260: 8c3b cd3e 86d7 79be 7c76 0bbd 34c5 5cbe
00000270: 7c73 8cbe a0b8 8b3a 3031 d7bb 7aab 953c
00000280: 7c24 15bd ce34 c93e 1d38 773e f0b6 c23e
00000290: 7d5f 59bd f632 aabd ffd4 5ebe 86ac aebb
000002a0: 894a e4be d0b3 9bbc 2756 18bc 88bb 083e
000002b0: 6bed 023e 1ff7 87bb f885 273e 9818 f53b
000002c0: e65a 1ebd fe56 ec3d b452 97bc 2fc8 f43e
000002d0: dfe1 8a3e c3ce 863e e820 08be bd7c fa3e
000002e0: 1148 1a3e 9765 1c3d 74bb 9fbe 3cfa f3bd
000002f0: 6196 41bc 8ec6 ab3e e2a1 babd aaeb 84be
00000300: 6c02 51be 45e4 063f 5b09 623d 7272 0ebd
00000310: b70e 253c 2266 863b 083e afbe f5e8 543c
00000320: da5d 153d f78e 523d 672e 46bd 9e41 bcba
00000330: b0fc 1a3d 3c2b 093e e9ad df3d a5c4 6ebc
00000340: 9bb2 0dbc 83ee aa3c d262 933e 0a5c b9bd
00000350: 4197 6d3e 717c 49bd 9c2c 32be cc96 643e
00000360: 69e4 b1ba bba0 e0be 2755 a53d a8a5 cf3c
00000370: e9c3 e43c 7bf4 ac3e 6113 26bf d2f5 efbd
00000380: 83ac f4be 6310 003f 08d7 91be be01 d9bd
00000390: 5c8b 0ebe 1922 d1be d843 1fbe 4f83 e13c
000003a0: 2eca 143f 117e 093e 4e40 9b3e 9bf8 e1bd
000003b0: 8ae9 7b3d 99f3 c43d 1a3a b7bd c7a7 82bb
000003c0: c954 003f a86c 07be 7722 a7bc 06e6 3c3d
000003d0: d143 a0bd cada 683e 524c 2c3e 803d c43e
000003e0: 83e3 973e ab18 a33e 4f5a fd3c a3d9 9abe
000003f0: 9b2e 103f f60b e73e ce6f ff3c 35dd c23c

linear2.bias f4 [3]
0.41608027 0.046150967 -0.02295792
00000000: 7908 d53e cc08 3d3d 3f12 bcbc
